LSTM/prediction/lstm_model.pth (torch, 671403 bytes, 20 tensors)

embedding.weight f4 [4, 32]
0	0xbf9f0d6c	-1.2425971
1	0xbfa5e442	-1.2960284
2	0x3eac65d7	0.33671448
3	0x3f8c4a71	1.0960218
4	0x3e8478a2	0.25873286
5	0xbf0b055d	-0.5430506
6	0x3fdcc312	1.7247031
7	0xbef1768f	-0.47160766
8	0xbf21cebb	-0.6320607
9	0xbeb515f0	-0.353683
10	0x3f8c921c	1.0982089
11	0xbfd0d9ce	-1.6316469
12	0xbf4f3c34	-0.8095124
13	0xbefcb2e0	-0.4935522
14	0x3f3cbd8b	0.7372672
15	0x3c22a678	0.009927385
16	0x3edd4723	0.43218336
17	0x3f902604	1.1261601
18	0xbe66df06	-0.22546014
19	0x3eca4415	0.39505067
20	0xbed4cacf	-0.4156098
21	0x3fde64fa	1.7374566
22	0xbff663f6	-1.9249256
23	0x3d632761	0.055457477
24	0xbf4876c6	-0.78306234
25	0xbf133552	-0.57503235
26	0x3d8bc6b8	0.06825012
27	0x3fa429d4	1.2825265
28	0x3c8a839a	0.016908456
29	0xbc9aa3b3	-0.018876886
30	0xbf3189e1	-0.6935101
31	0xbf9df362	-1.23399
32	0x3f1700d2	0.58985627
33	0xbf81a4b0	-1.0128384
34	0xbd403192	-0.046922274
35	0x3ec670e3	0.38758
36	0xbf33b9e1	-0.70205504
37	0x3faf5762	1.3698542
38	0x3ed62168	0.41822362
39	0xbe59a175	-0.21252997
40	0xbf6be678	-0.9214854
41	0x3ff08fa4	1.8793836
42	0xbeb84efb	-0.35997757
43	0x3fd768c1	1.6828843
44	0xbdc44dd6	-0.095851585
45	0xbf612d24	-0.87959504
46	0x3e040ea4	0.1289621
47	0xbe968f27	-0.29406092
48	0xbd80cf1f	-0.06289505
49	0xbe72b285	-0.23700912
50	0x3f7c14c4	0.98469186
51	0xbe85c176	-0.2612416
52	0x3fac4504	1.3458562
53	0x3effc770	0.49956846
54	0x3f33dc80	0.7025833
55	0x3f819f19	1.0126678
56	0x3e90c1e9	0.28272942
57	0xbed29f8b	-0.41137347
58	0x3f825837	1.0183171
59	0x3e476c5b	0.19474928
60	0xbf84c389	-1.0372173
61	0x3f2bb48c	0.6707237
62	0x3f30bffb	0.6904294
63	0x403f20bf	2.9863737
64	0x3f43a760	0.7642727
65	0x3f9248ca	1.1428463
66	0xbf9c006d	-1.218763
67	0xbfa4e4ea	-1.2882359
68	0xbef7eb34	-0.48421633
69	0x3e8f6e6c	0.28013933
70	0x3f26a4b9	0.65095097
71	0x3f742ea8	0.9538369
72	0xbfe9d622	-1.8268473
73	0xbffc93f4	-1.9732652
74	0x3f31eb6f	0.6949987
75	0xbeffaf80	-0.49938583
76	0xbe2194bf	-0.15779398
77	0xbf1d7241	-0.6150246
78	0xbfabb739	-1.341529
79	0xbfb98dff	-1.4496459
80	0xbf91e2dd	-1.1397358
81	0x3fa2f8f8	1.2732229
82	0xbeee257e	-0.4651298
83	0xbfa8f929	-1.3201038
84	0x3ea7c443	0.32766923
85	0x3fa8bece	1.3183229
86	0x4037a75a	2.8695893
87	0xbff82211	-1.9385396
88	0xbff9400b	-1.9472669
89	0xbfaf8ef6	-1.3715503
90	0xbffadee9	-1.9599277
91	0xbfdd8fb7	-1.7309483
92	0x3de0ad0e	0.109705076
93	0xbeb3796b	-0.35053572
94	0xbfb8c39b	-1.4434694
95	0xbf986aa1	-1.190754
96	0x3fcd7c15	1.6053492
97	0x3e5692ae	0.20954391
98	0xbe0b9e86	-0.1363469
99	0x3f1c467a	0.6104504
100	0x3d5e4cbb	0.054272395
101	0x3eb9ef77	0.3631551
102	0x3faa6f59	1.3315231
103	0x3e92cd88	0.28672433
104	0xbdace2b5	-0.084416784
105	0xbf8b216d	-1.0869576
106	0x3fa66978	1.3000937
107	0x3efbf787	0.49212286
108	0xbf9ec9fa	-1.2405388
109	0xbfce6a64	-1.6126218
110	0x3edfbf2d	0.43700543
111	0x3f2f7519	0.6853805
112	0x3fdd3c01	1.7283937
113	0xbf5705c0	-0.8399315
114	0x3f044d91	0.51680857
115	0xbea9885c	-0.33111846
116	0x3d30ee11	0.043195788
117	0xbf8fbf82	-1.1230319
118	0x3eb24094	0.34814894
119	0xbfb1b272	-1.3882582
120	0xbf03c197	-0.5146727
121	0x3f6c7609	0.9236761
122	0xbd0f5817	-0.03499612
123	0xbfb45d35	-1.4090945
124	0x3db1a115	0.08673302
125	0xbf47d2a3	-0.7805578
126	0xbff6b3b3	-1.927359
127	0xbf0c8687	-0.5489277

lstm.weight_ih_l0 f4 [256, 32]
0	0x3d76e850	0.060280144
1	0x3d9a484a	0.07533319
2	0x3d7497ef	0.059715208
3	0xbd3e4814	-0.046455458
4	0xbdf0e052	-0.11761536
5	0xbdc06168	-0.09393579
6	0xbccd4ef5	-0.025062064
7	0xbd6d35dc	-0.057912692
8	0xbe053868	-0.13009799
9	0x3c2f6861	0.010706038
10	0xbdb0607d	-0.08612154
11	0x3db10b98	0.086447895
12	0xbd1e070b	-0.038580935
13	0xbd5f896f	-0.054574426
14	0xbd9e50e0	-0.077302694
15	0x3ce08856	0.02740876
16	0x3d585f1d	0.052825082
17	0xb969b5da	-0.00022288357
18	0x3da0e970	0.07857025
19	0xbdc6897d	-0.096941926
20	0x3be09ac7	0.0068543884
21	0x3c628743	0.013826194
22	0x3d9ab881	0.075547226
23	0xbb50f313	-0.0031883165
24	0x3d0e189b	0.034691434
25	0xbdd3b4dd	-0.10337231
26	0xbdc73bcf	-0.097282045
27	0xbd8de191	-0.06927789
28	0xbdf062f0	-0.11737621
29	0xbdeffbae	-0.11717926
30	0x3d27b58d	0.040944625
31	0xbdb20d39	-0.08693928
32	0xbde8d21f	-0.113682024
33	0x3db0d4fb	0.08634373
34	0xbdb4928f	-0.08817016
35	0x3de8f236	0.11374323
36	0x3c38a2e8	0.011269309
37	0xbd46f7e7	-0.04857626
38	0xbd5e2592	-0.05423505
39	0xbda88136	-0.0822777
40	0x3d7dadfa	0.061933495
41	0x3dbd629b	0.09247323
42	0xbca19622	-0.01972491
43	0x3d641db9	0.05569241
44	0xbd98b19c	-0.07455751
45	0x3ded5bce	0.11589776
46	0xbda57bb3	-0.080802344
47	0xbddaaef4	-0.10677901
48	0x3c5e941f	0.0135851195
49	0x3dd2e7ed	0.102981426
50	0x3c83de55	0.016097227
51	0x3c849b52	0.016187344
52	0x3c4ff318	0.012692235
53	0x3d9612f5	0.073278345
54	0x3c94b292	0.018151555
55	0xb980c21c	-0.00024558685
56	0x3d4f730d	0.05064683
57	0x3d78f5db	0.06078134
58	0xbbfb4630	-0.007668279
59	0x3d42adc7	0.04752901
60	0x3d57cf81	0.052688126
61	0xbdea878d	-0.114516355
62	0xbde4e8ae	-0.11177193
63	0xbc013f8e	-0.007888688
64	0xbdab4ec3	-0.08364632
65	0xbdb36059	-0.08758611
66	0x3d62beb8	0.055357665
67	0x3cded0b3	0.027199125
68	0xbd8fe955	-0.070269264
69	0x3dcb589d	0.09929011
70	0xbd706874	-0.058693364
71	0x3defbaa8	0.11705524
72	0xbd5ccdbf	-0.053907152
73	0x3dcc3662	0.0997131
74	0xbcf80c30	-0.030279249
75	0x3d52247d	0.05130433
76	0xbd132a32	-0.035928912
77	0x3d4c181b	0.049827676
78	0x3c6a9955	0.014318784
79	0x3ba63147	0.0050717923
80	0xbd2ebb3d	-0.042659033
81	0x3e02b7a8	0.12765372
82	0x3dce2d60	0.10067248
83	0xbdd3c126	-0.103395745
84	0x3df29a54	0.11845842
85	0x3e0d2fab	0.13787715
86	0x3dd4e72c	0.10395655
87	0xbe053a5b	-0.13010542
88	0x3d53cfcb	0.05171184
89	0xbdd158b1	-0.10221995
90	0x3c0dd774	0.008657325
91	0x3bd75bc4	0.0065722186
92	0xbc272b0b	-0.010203133
93	0xbdd3277c	-0.103102654
94	0x3c30a78b	0.010782133
95	0xbd6aab7f	-0.057292458
96	0x3d904eda	0.0704629
97	0x3ceb03c4	0.028688319
98	0xbcb29e97	-0.021804137
99	0xbc05fa16	-0.008177301
100	0x3d41994a	0.04726533
101	0xbdc3b45e	-0.09555887
102	0xbde9ca54	-0.11415544
103	0x3d54e903	0.05198003
104	0xbd7de089	-0.06198171
105	0xbd9e00f1	-0.07715023
106	0xbd9bb489	-0.07602794
107	0xbdc46cb3	-0.09591045
108	0xbd3570c2	-0.044296987
109	0xbd99d222	-0.07510783
110	0x3decf479	0.11570067
111	0x3cba36a7	0.022731138
112	0x3c4214f5	0.011845817
113	0x3dd34725	0.10316304
114	0x3d928b9a	0.07155533
115	0xbde0e06b	-0.10980304
116	0x3c1c9aa2	0.009558352
117	0x3de5af84	0.112151176
118	0xbe06a8ab	-0.13150279
119	0x3d8c36d9	0.06846399
120	0xbd42e77c	-0.047584042
121	0x3dafeff3	0.085906886
122	0xbdeac1dc	-0.11462757
123	0xbdcc756d	-0.09983335
124	0x3dea205b	0.114319526
125	0xbd97284f	-0.07380735
126	0x3d09523e	0.033525698
127	0x3d6699ba	0.05629895
128	0x3d33390c	0.043755576
129	0x3d11d91c	0.035607442
130	0xbe05dde9	-0.13072933
131	0xbe090733	-0.13381653
132	0xbc608bb7	-0.013705186
133	0xbd07f7cd	-0.033195306
134	0x3dea53db	0.114417754
135	0xbdd99c5c	-0.10625526
136	0x3dca6c16	0.09883897
137	0xbde34fe1	-0.1109922
138	0x3dde6a9a	0.108601764
139	0xbb89e02b	-0.004207631
140	0xbdf0f2fb	-0.11765095
141	0xbdc431a3	-0.0957978
142	0xbd17085e	-0.036873214
143	0xbd23039c	-0.039798364
144	0x3c0e7e84	0.008697156
145	0x3d8ca21a	0.06866856
146	0x3d0c9e3a	0.034330584
147	0xbd7ddfeb	-0.061981123
148	0xbd1c1690	-0.038107455
149	0xbd9ccc75	-0.076561846
150	0x3d85b092	0.06527819
151	0x3d4acaf5	0.04950996
152	0x3c8dba23	0.017300671
153	0xbd90590f	-0.070482366
154	0xbdeda260	-0.11603236
155	0x3b631913	0.0034652397
156	0x3d5c5bca	0.053798474
157	0x3d964828	0.073379815
158	0xbe093c1d	-0.13401838
159	0x3cc6f052	0.024284516
160	0x3dec5f2f	0.11541592
161	0xbdb615da	-0.088908866
162	0x3c0d85b4	0.008637834
163	0x3cacd40e	0.02109721
164	0x3d607994	0.054803446
165	0xbdf87208	-0.12131125
166	0xbdd2a055	-0.10284487
167	0x3cdf7c98	0.02728109
168	0x3de7fef7	0.113279276
169	0xbd80e8d4	-0.062944084
170	0x3d82a153	0.063784264
171	0xbd5b3e8c	-0.053526446
172	0xbda0bebe	-0.07848881
173	0xbd37d647	-0.044882085
174	0xbe00da14	-0.1258319
175	0x3d19696f	0.037454065
176	0xbb39089f	-0.0028233898
177	0xbd66f67a	-0.056387402
178	0xbdbfb596	-0.09360807
179	0xbd2dfc0b	-0.042476695
180	0x3d054b9d	0.032542814
181	0x3cf49574	0.029856421
182	0x3cf1d409	0.029520052
183	0xbdca1975	-0.09868137
184	0xbcdee839	-0.027210342
185	0x3e042a7c	0.12906832
186	0xbdf770d9	-0.12082071
187	0xbd670577	-0.056401696
188	0x3d9e9e42	0.07745029
189	0xbd25d736	-0.040488444
190	0xbcb50a44	-0.022099622
191	0x3d6228aa	0.05521456
192	0xbcd6011e	-0.02612358
193	0x3d3049cc	0.04303913
194	0xbb57bb5f	-0.0032918078
195	0xbdbd4093	-0.09240832
196	0x3df43cf4	0.119256884
197	0xbd9f15ed	-0.07767854
198	0x3dff239a	0.12457962
199	0x3bf4d411	0.0074715693
200	0xbd2b1774	-0.041770414
201	0xbdc12ede	-0.09432767
202	0x3cda1051	0.026619108
203	0x3c714438	0.014725737
204	0xbd28a555	-0.041173298
205	0xbda1ef38	-0.079069555
206	0xbd2c7d5f	-0.04211175
207	0x3e0b49e7	0.1360241
208	0x3db47c9a	0.08812828
209	0x3d8a2cbc	0.06746814
210	0x3ce2e642	0.027697686
211	0x3d95cf27	0.07314902
212	0xbd3bd0c1	-0.04585338
213	0x3d10c420	0.03534329
214	0xbdb74b6d	-0.08949933
215	0xbd906baa	-0.07051785
216	0x3d63a164	0.055573836
217	0xbc6e947a	-0.014561767
218	0x3d9f5da8	0.077815354
219	0x3e000183	0.12500577
220	0x3d536fd1	0.05162031
221	0xbd0c9b26	-0.03432765
222	0x3dd51aad	0.104054786
223	0x3dc04acc	0.09389266
224	0xbdbdd710	-0.092695355
225	0x3dd2c60d	0.102916814
226	0x3d0d0b95	0.034434874
227	0x3d599c10	0.05312735
228	0x3d928a5c	0.07155296
229	0x3db7fc2f	0.08983647
230	0x3d198e5e	0.037489288
231	0x3d1bd795	0.038047392
232	0x3d336fc8	0.043807775
233	0xbcb88b3c	-0.02252733
234	0xbde1414a	-0.10998781
235	0x3cfa8fb7	0.030586107
236	0x3d83587a	0.0641336
237	0x397cc936	0.0002410755
238	0xbd8dd821	-0.06925989
239	0x3c98fbe5	0.0186748
240	0x3e0de15f	0.13855503
241	0xbd8d500e	-0.06900035
242	0x3dbbbce2	0.09166886
243	0xbd261b14	-0.040553167
244	0xbdaac3b5	-0.083381094
245	0x3d6fe112	0.058564253
246	0x3d220403	0.039554607
247	0x3c5720ff	0.0131304255
248	0xbda728b7	-0.081620626
249	0x3dc28dab	0.09499677
250	0x3ddcad90	0.10775292
251	0x3d7e18e8	0.06203547
252	0xbd17d6e2	-0.037070163
253	0x3d946d41	0.07247401
254	0xbdfdf779	-0.12400717
255	0x3defdfbd	0.117125966

lstm.weight_hh_l0 f4 [256, 64]
0	0xbc0c76a0	-0.008573204
1	0xbdada9d7	-0.0847966
2	0xbdaa0905	-0.083025016
3	0x3dc644d7	0.09681099
4	0x3d619c0a	0.05508045
5	0xbe125d0c	-0.14293307
6	0xbd48849f	-0.048954602
7	0x3dd0c203	0.10193255
8	0xbd9d731b	-0.0768797
9	0x3d89db3a	0.06731267
10	0xbd5b9bf6	-0.053615533
11	0xbd41c693	-0.047308516
12	0x3dc4ffdb	0.09619113
13	0xbd9c80be	-0.07641743
14	0x3d721c66	0.059109114
15	0x3d1101a6	0.035401963
16	0x3d905785	0.07047943
17	0x3ce00c07	0.027349485
18	0xbdc0b0d4	-0.09408727
19	0xbd7039c5	-0.058648843
20	0xbdd11c3e	-0.10210465
21	0x3d051336	0.032489024
22	0x3dd9b4e3	0.106302045
23	0xbdff9e43	-0.12481358
24	0xbdb7bd8a	-0.089716986
25	0xbc8413a9	-0.016122656
26	0xbdc326f5	-0.09528915
27	0x3dcd1a22	0.1001475
28	0x3c6ff6c5	0.014646237
29	0x3c35350d	0.011060012
30	0xbdc72c11	-0.09725202
31	0x3c3e30cf	0.011608317
32	0x3d3f06aa	0.046637215
33	0x3d3b440a	0.045719184
34	0x3c6d66ce	0.014489843
35	0x3e0c730d	0.13715763
36	0x3dd2c91f	0.10292267
37	0x3d04cb02	0.032420166
38	0xbdc549e6	-0.09633236
39	0xbe05ec11	-0.13078333
40	0xbd102586	-0.035192035
41	0xbdae8eb0	-0.08523309
42	0x3d1bc985	0.03803398
43	0xbda363a0	-0.07977986
44	0xbd9e9f54	-0.07745233
45	0xbd3be582	-0.045873173
46	0xbd72e560	-0.05930078
47	0x3d85840c	0.065193266
48	0x3d767056	0.060165726
49	0x3e076585	0.1322232
50	0xbd052f00	-0.032515526
51	0xbd2d4401	-0.04230118
52	0xbdea857a	-0.1145124
53	0x3d5ca579	0.053868745
54	0x3e07e916	0.13272509
55	0xbc1037ec	-0.008802395
56	0xbd01d9d1	-0.031701867
57	0xbd28a4cd	-0.04117279
58	0x3cf113f1	0.029428454
59	0xbd5e80be	-0.054321997
60	0x3dad6d21	0.0846808
61	0x3d8d55cf	0.06901132
62	0x3dd1b1e1	0.10239006
63	0xbdc89665	-0.097943105
64	0xbcd02620	-0.025408804
65	0xbdfbb4c7	-0.1229034
66	0xbdd1e809	-0.10249335
67	0x3d683721	0.0566932
68	0x3de5a6f1	0.11213482
69	0xbd7270fd	-0.059189785
70	0x3bea9bb9	0.007159677
71	0x3d1c8f9a	0.038222887
72	0xbd8ff3f1	-0.0702895
73	0x3d944ed7	0.072416
74	0xbdf198fd	-0.11796758
75	0xbd1cf291	-0.038317267
76	0x3bab9cba	0.005237189
77	0xbdd0cf83	-0.1019583
78	0xbde3573a	-0.111006215
79	0x3d269e62	0.04067839
80	0x3d9df6a8	0.077130616
81	0xbc9db514	-0.019251384
82	0x3dba08da	0.090837196
83	0xbe01f2b2	-0.12690237
84	0xbc2f6f3a	-0.010707671
85	0xbd8c9033	-0.06863441
86	0xbbf649f1	-0.0075161387
87	0xbd2bc6d7	-0.041937675
88	0xbcb6c266	-0.022309493
89	0xbde084cc	-0.10962829
90	0xbdd353cf	-0.103187196
91	0x3d13fda8	0.036130577
92	0xbcde4d03	-0.027136331
93	0x3cfdabc6	0.030965697
94	0xbd89c9ab	-0.06727918
95	0xbde9846e	-0.11402212
96	0x3c1bae08	0.0095019415
97	0xbd6bba86	-0.05755093
98	0xbdacb43c	-0.084328145
99	0xbdbb07da	-0.09132357
100	0x3dc170f3	0.094453715
101	0xbdea1cab	-0.11431249
102	0x3c2b7ed8	0.010467254
103	0x3cdfa90e	0.027302291
104	0xbd912a72	-0.07088174
105	0x3deb7502	0.11496927
106	0xbc7e9096	-0.015537402
107	0x3ddbd356	0.107336685
108	0x3d0203fe	0.03174209
109	0xbc9dad3f	-0.01924765
110	0x3d6242ee	0.05523961
111	0xbde74bb1	-0.11293734
112	0x3d963e04	0.07336047
113	0xbce68e35	-0.028143981
114	0xbd882d18	-0.06649226
115	0x3cb89499	0.022531794
116	0x3d8fe7b3	0.07026615
117	0x3cab7b98	0.020932958
118	0xbdc30f9f	-0.09524464
119	0xbd95e2ec	-0.073186725
120	0x3cc1baeb	0.0236487
121	0x3d5c2055	0.05374177
122	0x3da7b174	0.081881434
123	0xbdf1d2de	-0.11807798
124	0x3d6b2991	0.057412688
125	0x3df01cdb	0.11724254
126	0x3d59b94c	0.05315523
127	0xbcc69bc4	-0.024244197
128	0xbd060294	-0.032717302
129	0x3dcff249	0.10153634
130	0xbd4e51fe	-0.050371163
131	0x3d339f14	0.04385288
132	0xbb66f7de	-0.0035242955
133	0x3dae4f33	0.085112
134	0xbdd9da10	-0.10637295
135	0x3c9bd07f	0.019020317
136	0xbdc48ee2	-0.09597565
137	0xbcf2cd3f	-0.029638885
138	0xbdc9d12a	-0.09854348
139	0x3d8a9569	0.06766779
140	0x3bb68188	0.0055696405
141	0xbc4782dd	-0.012177196
142	0x3dc394ce	0.095498666
143	0xbc753217	-0.014965556
144	0xbd0e0dcf	-0.034681138
145	0xbd122b1c	-0.035685644
146	0x3d3b8a82	0.04578639
147	0xbdf984ab	-0.121835075
148	0x3cd3fbd6	0.02587692
149	0x3d18755c	0.037221298
150	0xbd154cf3	-0.036450338
151	0x3d5ed973	0.054406594
152	0xbe03838a	-0.12843147
153	0x3ddba867	0.107254796
154	0x3da1d02e	0.07901035
155	0x3d80f420	0.06296563
156	0x3cb5d6df	0.022197185
157	0xbdfb5f26	-0.122740075
158	0xbdab5cec	-0.08367333
159	0xbdbce415	-0.09223191
160	0xbda51f9b	-0.08062669
161	0xbc22c5fc	-0.0099348985
162	0x3c1f28e8	0.009714343
163	0x3e0595a3	0.13045363
164	0x3db38fbe	0.08767651
165	0xbd72b3ba	-0.05925343
166	0xbcbfc5f8	-0.023409829
167	0x3cb4ad6c	0.02205535
168	0xb9ef65a6	-0.00045661366
169	0x3dd50688	0.10401636
170	0x3c0cd3e6	0.008595442
171	0xbde65556	-0.11246745
172	0x3d166ce5	0.036724944
173	0x3de3bc18	0.111198604
174	0xbc68da2d	-0.014212173
175	0x3d1e1aed	0.038599897
176	0xbda641b7	-0.08118003
177	0x3db9f03a	0.09079023
178	0x3dac4814	0.08412185
179	0xbbb56ab9	-0.005536404
180	0xbdb47084	-0.08810523
181	0xbd94ec01	-0.07271577
182	0x3cefcae3	0.029271549
183	0x3d04d0ce	0.032425694
184	0xbd11b72d	-0.03557508
185	0x3d77a4c9	0.060459886
186	0xbdc4c6d3	-0.09608235
187	0xbe025133	-0.12726288
188	0xbd5222ae	-0.051302604
189	0xbcf48cc2	-0.029852275
190	0xbdf3cdea	-0.11904509
191	0x3d604f6d	0.054763246
192	0x3de10bf4	0.10988608
193	0xbdf19d4e	-0.117975816
194	0x3db16fac	0.08663878
195	0x3c09c7cb	0.008409451
196	0xbd189ccd	-0.037258912
197	0x3cbdd716	0.02317385
198	0xbdd9e1a6	-0.10638742
199	0xbdbfe723	-0.09370258
200	0x3df504bb	0.11963793
201	0xbd761455	-0.060077984
202	0xbdaa8808	-0.08326727
203	0xbdc8f0d8	-0.09811562
204	0x3c7e617b	0.015526171
205	0x3dc20c50	0.09475005
206	0x3c8c4c95	0.01712636
207	0xbc8cb586	-0.0171764
208	0x3d1ea656	0.03873285
209	0x3d91b9ab	0.071154915
210	0x3deb57fb	0.1149139
211	0x3cf2a6de	0.029620584
212	0xbd2cdccf	-0.042202767
213	0x3daff2d4	0.08591238
214	0x3df4add7	0.1194722
215	0x3c4afda4	0.012389574
216	0x3d31c080	0.043396473
217	0xbb9031d3	-0.0044004708
218	0xbdc232e9	-0.094823666
219	0xbcfb0366	-0.030641269
220	0xbc8cfe58	-0.017211124
221	0xbcb7539a	-0.022378732
222	0x3d96b161	0.07358051
223	0x3d66c286	0.056337856
224	0x3d26e9df	0.04075038
225	0xbd5e141b	-0.054218393
226	0x3d4f1a2a	0.05056206
227	0xbdd7a425	-0.10529355
228	0x3cc7b03d	0.02437603
229	0x3deac2c8	0.11462933
230	0xbdf0e91f	-0.11763214
231	0x3d21cfec	0.03950493
232	0x3d3ea5c0	0.04654479
233	0xbd5877e9	-0.05284873
234	0x3cb4509b	0.022011092
235	0xbd9ecbc0	-0.07753706
236	0xbdce4ab8	-0.10072845
237	0xbb7a565c	-0.0038198447
238	0xbd0509bd	-0.03247999
239	0xbd245f0d	-0.04012971
240	0xbdb2efd3	-0.08737149
241	0x3d673ba2	0.056453355
242	0xbd48fcae	-0.0490691
243	0x3dee909f	0.11648678
244	0xbdb096bf	-0.086225025
245	0x3cee7df2	0.02911279
246	0xbe080a58	-0.13285196
247	0xbdf8faf0	-0.121572375
248	0x3dc82535	0.09772722
249	0xbdd8b353	-0.105810784
250	0xbd3db0bb	-0.04631112
251	0xbdcb69b1	-0.099322684
252	0x3c2c1a4a	0.010504315
253	0xbcae32d9	-0.02126448
254	0xbde1de8a	-0.11028774
255	0xbca014f5	-0.019541243

lstm.bias_ih_l0 f4 [256]
0	0xbdab801f	-0.083740465
1	0x3d8bdbe3	0.068290494
2	0xbc730f5c	-0.014835205
3	0x3d661e91	0.056181494
4	0x3c1ac4dc	0.009446349
5	0x3d6b840d	0.05749898
6	0xbd85dc78	-0.06536192
7	0x3d0b7edc	0.03405653
8	0xbb10dcbc	-0.0022104224
9	0x3db657d1	0.089034684
10	0x3e043bd5	0.12913449
11	0x3dcb7e1b	0.09936162
12	0xbc3920a8	-0.01129929
13	0xbd0b9d79	-0.034085725
14	0xbcbf7ef2	-0.023375962
15	0xbdda1951	-0.1064936
16	0xbd623d62	-0.05523432
17	0x3c09ffbf	0.008422791
18	0x3dbbc855	0.0916907
19	0x3d86f509	0.065897055
20	0xbcfba3f8	-0.030717835
21	0x3d517d25	0.051144738
22	0x3da0aada	0.07845087
23	0x3df6583c	0.12028548
24	0x3d4c5582	0.049886234
25	0x3dc66ede	0.09689115
26	0xbbbf200b	-0.0058326772
27	0x3e0f4300	0.13990402
28	0x3d8d89a9	0.06911022
29	0xbca3c5a7	-0.019991709
30	0x3dc22eeb	0.09481605
31	0xbd4addf7	-0.04952809
32	0xbdac43c5	-0.084113635
33	0xbcca4a8c	-0.02469375
34	0xbdee8c9d	-0.116479136
35	0xbd1cb6d0	-0.03826028
36	0xbddfdbcd	-0.109305955
37	0xbd85e8b7	-0.065385275
38	0xbcc306d0	-0.02380696
39	0xbda1bc3a	-0.078972295
40	0xbd710ecb	-0.058852
41	0x3d8b6c8b	0.06807812
42	0xbde406f8	-0.11134142
43	0xbd9460d4	-0.07245031
44	0xbd3b35dc	-0.04570566
45	0xbdce7eb1	-0.10082758
46	0x3db4be15	0.08825318
47	0xbd69801f	-0.05700695
48	0x3cba204b	0.022720477
49	0x3d80a78f	0.06281959
50	0x3d8b0f32	0.06790008
51	0xbdfafd4e	-0.12255345
52	0xbd9cfc32	-0.0766529
53	0x3e075d1f	0.13219117
54	0xbcfcc505	-0.030855665
55	0xbd563f65	-0.05230655
56	0xbd3b271a	-0.045691587
57	0xbd3c5014	-0.045974806
58	0xbdd6ba56	-0.104847595
59	0xbd5453b8	-0.051837653
60	0x3c1d4356	0.009598574
61	0xbdb9b6a5	-0.0906804
62	0xbd2eaf7f	-0.042647835
63	0xbc8d2b3a	-0.017232526
64	0x3d17207f	0.036896225
65	0xbd8cc9ec	-0.06874451
66	0xbd533e86	-0.0515733
67	0xbdac8404	-0.084236175
68	0x3db3302c	0.087494224
69	0x3d91b89f	0.07115292
70	0xbc74aad2	-0.014933305
71	0x3dcf19c0	0.10112333
72	0x3dbb5252	0.09146561
73	0xbdbc4f8a	-0.09194858
74	0x3d99c256	0.0750777
75	0x3cba1a0f	0.022717504
76	0x3dbd74bb	0.0925078
77	0x3dae810e	0.08520709
78	0x3d16e17a	0.036836125
79	0xbdc557c5	-0.09635881
80	0x3e005a43	0.12534432
81	0xbdff39c4	-0.1246219
82	0x3d5f3d71	0.054501954
83	0x3d1bc3cb	0.03802852
84	0xbd311c68	-0.04323998
85	0x3dd88131	0.10571516
86	0x3dc39e3a	0.09551664
87	0x3d5394f1	0.051655713
88	0xbcca5f6a	-0.0247037
89	0x3dd64c78	0.10463804
90	0xbd315646	-0.043295167
91	0x3d98053e	0.07422875
92	0xbddde1f7	-0.10834115
93	0x3de052b3	0.109532736
94	0xbd8b0506	-0.067880675
95	0x3d791aa5	0.060816426
96	0x3d4af38d	0.049548674
97	0xbdd4e117	-0.10394495
98	0xbde8eeb3	-0.11373653
99	0xbdc6a1d7	-0.09698837
100	0xbd12ac80	-0.03580904
101	0xbc94dcae	-0.018171635
102	0x3ca87fbd	0.020568723
103	0xbc37c727	-0.011216915
104	0xbddc1c7b	-0.1074762
105	0x3d97ef8f	0.07418739
106	0xbda0fa79	-0.07860274
107	0x3d43d8e9	0.047814284
108	0x3d16320d	0.036668826
109	0x3db7b1a6	0.089694306
110	0x3d93fc93	0.07225909
111	0x3cc97403	0.024591452
112	0xbcb23bbc	-0.021757
113	0xbd99b604	-0.0750542
114	0x3d91e4e8	0.071237385
115	0xbc876c9e	-0.016531285
116	0x3d9488d7	0.07252663
117	0x3dc20be4	0.09474924
118	0xbc971975	-0.018444756
119	0xbbdf77b3	-0.006819689
120	0xbdd5cb31	-0.10439146
121	0xbcb514df	-0.022104679
122	0xbca2a5da	-0.019854475
123	0x3deaf3e3	0.11472299
124	0x3dd85478	0.10562986
125	0x3dde1958	0.10844678
126	0x3d6a13ca	0.05714778
127	0xbdb334b8	-0.0875029
128	0x3e09266c	0.13393563
129	0x3a60b64a	0.0008572085
130	0x3c61a002	0.013771059
131	0xbdf448c3	-0.11927941
132	0xbd2c30dc	-0.042038783
133	0xbdf1735b	-0.117895804
134	0xbd0117e8	-0.03151694
135	0x3c044de1	0.008075208
136	0x3e00692b	0.12540118
137	0x3de4e20b	0.11175927
138	0x3d08bca3	0.033383023
139	0x3d93f722	0.07224871
140	0xbe0590d7	-0.13043533
141	0xbd3a445c	-0.04547535
142	0xbddc2f26	-0.1075118
143	0xbcb2038b	-0.021730205
144	0x3dcfe2cb	0.10150679
145	0x3e05d8ea	0.13071027
146	0x3d309d26	0.04311862
147	0x3da2ba5d	0.07945702
148	0xbe0c0587	-0.13673984
149	0x3c0feb50	0.00878413
150	0x3d2a07e8	0.041511446
151	0x3caf187d	0.021373982
152	0xbca7ae7f	-0.020468948
153	0xbd6969be	-0.05698561
154	0xbddd5c6a	-0.10808642
155	0xbcff75c2	-0.031184081
156	0x3da6557c	0.081217736
157	0xbd356ffe	-0.044296257
158	0x3d9f300c	0.07772836
159	0xbdb7d5e0	-0.0897634
160	0x3dbfd13e	0.09366082
161	0xbdaaec3f	-0.083458416
162	0x3db2cb84	0.08730224
163	0xbd614ec0	-0.055006742
164	0x3deac8f7	0.11464112
165	0x3d93461a	0.07191105
166	0xbdfb9ce4	-0.12285784
167	0xbd19f5bb	-0.037587862
168	0x3cc075b8	0.023493633
169	0xbba4533e	-0.005014806
170	0xbddd9c84	-0.108208686
171	0xbc4636e0	-0.012098044
172	0x3d89c6a0	0.06727338
173	0x3d28e0f6	0.041230164
174	0xbd99e821	-0.07514978
175	0xbd990595	-0.07471768
176	0x3de852f3	0.11343946
177	0x3d19f7b1	0.037589733
178	0xbc03c478	-0.008042447
179	0x3d8ccd10	0.0687505
180	0xbc1d8efd	-0.009616611
181	0xbdaa5ced	-0.083185054
182	0xbd25f9fd	-0.04052161
183	0x3e0f8620	0.14016008
184	0x3d9dd9fb	0.07707592
185	0x3cb64a7c	0.022252314
186	0xbc52c10e	-0.012863411
187	0xbdc6f211	-0.09714139
188	0xbd12c00c	-0.03582768
189	0x3d6326e2	0.055457003
190	0xbe08bb79	-0.13352765
191	0x3d03466e	0.03204959
192	0xbdc1ec47	-0.094688945
193	0xbc913c94	-0.017729081
194	0xbdb43c81	-0.08800603
195	0xbdea9ed3	-0.114560746
196	0xbd808f68	-0.062773526
197	0xbd5b8b6a	-0.053599752
198	0xbca62635	-0.02028189
199	0xbdc67efe	-0.096921906
200	0x3cd12913	0.025532281
201	0x3d8f573d	0.06999061
202	0xbbaa71b2	-0.005201542
203	0xbc50ac40	-0.01273638
204	0xbd918143	-0.07104733
205	0xbde743d6	-0.112922356
206	0x3dde06aa	0.10841115
207	0x3d6b376c	0.0574259
208	0x3e07615e	0.13220736
209	0xbdeb9df2	-0.11504735
210	0x3c5084d2	0.012726979
211	0x3d74c57f	0.05975866
212	0xbc3e3d67	-0.011611319
213	0xbae4b055	-0.001744757
214	0xbd6f3b67	-0.05840626
215	0xbde3bca2	-0.11119963
216	0xbcd09974	-0.025463797
217	0xbc607230	-0.013699099
218	0xbdf07665	-0.11741332
219	0x3e104915	0.14090379
220	0x3d6cd842	0.057823427
221	0x3dc2fc1b	0.095207416
222	0xbd87d0de	-0.06631635
223	0xbdca6940	-0.09883356
224	0x3d44e83a	0.04807303
225	0x3d9027ed	0.07038865
226	0x3da6e54d	0.081492044
227	0xbd69fc0b	-0.057125133
228	0xbd1b05db	-0.03784738
229	0xbdf23680	-0.11826801
230	0xbc7389fe	-0.014864443
231	0xbd10a64b	-0.03531484
232	0xbd08dbd3	-0.033412766
233	0x3d24917b	0.040177803
234	0x3d56f1fc	0.052476868
235	0xbdb71137	-0.0893883
236	0x3d8cb709	0.06870849
237	0x3d503a30	0.050836742
238	0xbd8c5dc2	-0.068538204
239	0x3de8a7b4	0.11360112
240	0xbd9ae81f	-0.07563805
241	0x3d98104f	0.074249856
242	0xbcf34d75	-0.02970002
243	0xbdde09e2	-0.10841729
244	0x3b4d54e4	0.0031331116
245	0x3d8af880	0.06785679
246	0x3c4e4456	0.012589535
247	0xbda49252	-0.08035721
248	0x3d347f7e	0.0440669
249	0xbdb17b80	-0.08666134
250	0xbd39d1a5	-0.04536595
251	0xbc00173d	-0.00781804
252	0x3af9a3e0	0.0019046031
253	0xbd156c68	-0.036480337
254	0xbc06c261	-0.0082250545
255	0xbdbd998f	-0.092578046

lstm.bias_hh_l0 f4 [256]
0	0xbc18c2ae	-0.009323759
1	0x3d8b24bb	0.06794115
2	0x3d58630e	0.05282884
3	0x3dc73480	0.097268105
4	0x3db4412a	0.088014916
5	0xbde493ee	-0.11161028
6	0x3ca1e2f0	0.019761533
7	0xbdd3392b	-0.10313638
8	0x3d6c9022	0.057754643
9	0x3d2e43f0	0.04254526
10	0xbdd07fc9	-0.10180623
11	0x3c612773	0.013742316
12	0xbb886a57	-0.0041630673
13	0xbd8df02b	-0.06930574
14	0xbd2d6e1d	-0.04234134
15	0xbd624ba4	-0.055247918
16	0x3c9e31ab	0.019310793
17	0x3cbdff49	0.023193019
18	0xbc9bbb18	-0.019010112
19	0x3dbd0966	0.09230308
20	0xbcc0e1d9	-0.023545193
21	0x3ddc8c07	0.107688956
22	0x3decfa7a	0.11571212
23	0x3dec5d9c	0.11541292
24	0x3df70c07	0.12062841
25	0xbdb9a468	-0.09064561
26	0xbdf8c39b	-0.12146684
27	0xbcadd226	-0.02121837
28	0x3cd04335	0.025422672
29	0xbdd152b8	-0.102208555
30	0x3d9b7449	0.07590539
31	0x3d515aa9	0.05111185
32	0xbdcefa25	-0.10106305
33	0xbd971396	-0.073767826
34	0xbd7e7b09	-0.062129054
35	0x3d8dea35	0.06929437
36	0xbcd5fd8a	-0.026121873
37	0x3dfc7f6f	0.123289935
38	0x3c6aed2d	0.014338774
39	0xbc963abb	-0.018338552
40	0xbc960427	-0.018312527
41	0xbdec651d	-0.11542723
42	0x3e09d610	0.13460565
43	0x3dad0342	0.08447887
44	0x3db0866d	0.0861939
45	0xbd22ad9a	-0.03971634
46	0xbbdb00f4	-0.006683463
47	0x3c3d484d	0.011552882
48	0xbd5ba9d3	-0.053628754
49	0x3dedfabb	0.11620089
50	0x3df753df	0.12076544
51	0x3d673df8	0.056455582
52	0x3da267e8	0.07929975
53	0x3b3b7c65	0.002860808
54	0xbd9e2474	-0.07721797
55	0xbd38655c	-0.04501854
56	0x3d616ac6	0.055033468
57	0x3ccefa5f	0.02526587
58	0x3d800c44	0.062523395
59	0x3dd1b810	0.10240185
60	0xbd47a4f7	-0.048741307
61	0xbccd2403	-0.025041586
62	0x3cd95bac	0.02653297
63	0xbd5ecd51	-0.054395024
64	0xbd812225	-0.06305341
65	0x3bfef096	0.007780145
66	0x3d5a0827	0.05323043
67	0x3bc6b342	0.0060638497
68	0xbd4bb39a	-0.04973183
69	0x3d9c58c5	0.07634119
70	0xbd79cb91	-0.06098515
71	0xbd030c81	-0.031994347
72	0x3dc8d49a	0.098061755
73	0x3d84f348	0.06491715
74	0x3d300b07	0.042979266
75	0xbd4a8622	-0.049444325
76	0x3d37a9e9	0.044839773
77	0x3bb87ba5	0.005629974
78	0x3d39e05b	0.045379978
79	0x3dd04b05	0.10170559
80	0xbcb9ab6e	-0.022664752
81	0xbe07533d	-0.13215347
82	0xbdd358b0	-0.1031965
83	0x3dc5dff6	0.09661858
84	0x3d78454c	0.06061296
85	0xbd696b31	-0.05698699
86	0x3db74676	0.08948986
87	0x3d69c905	0.057076473
88	0x3d3cd0b1	0.04609746
89	0x3d86bdb2	0.0657915
90	0xbde4f8ee	-0.11180292
91	0xbd8fe230	-0.07025564
92	0x3d8009f1	0.06251896
93	0xbdbba5c7	-0.09162479
94	0xbdca6678	-0.098828256
95	0x3d2166f8	0.03940484
96	0xbd4b28d6	-0.04959949
97	0x3e00dab2	0.12583426
98	0x3cc63ec0	0.024199843
99	0x3d06c4e4	0.032902613
100	0x3d807d66	0.06273918
101	0xbce84980	-0.02835536
102	0x3dd30977	0.1030454
103	0x3d6106bf	0.054938074
104	0x3de9552b	0.113931976
105	0x3daf7125	0.085665025
106	0x3df41b85	0.119193114
107	0x3cf0204c	0.029312275
108	0xbdc5881a	-0.096451
109	0x3d592bad	0.053020168
110	0x3d6b6219	0.0574666
111	0xbdc3cd84	-0.09560683
112	0x3da80c4e	0.08205472
113	0xbc7fa282	-0.01560271
114	0x3de0484d	0.1095129
115	0x3df257ac	0.11833128
116	0xbdb0dcb5	-0.086358465
117	0x3ddf195a	0.10893507
118	0xbc0d0c35	-0.008608867
119	0xbd7b2756	-0.06131681
120	0x3cf92ec8	0.030417815
121	0xbdfded8f	-0.12398826
122	0x3da8b3f9	0.08237452
123	0x3e12098b	0.14261453
124	0xbcd0866d	-0.025454724
125	0x3e09b4fc	0.13447946
126	0x3db6ccdc	0.089257926
127	0xbdcf6a3e	-0.10127686
128	0x3de1f3fe	0.11032866
129	0xbafdfe60	-0.0019378178
130	0xbd18f0a5	-0.03733887
131	0xbdde5405	-0.10855869
132	0xbd55c4a0	-0.05218947
133	0x3d1e0505	0.038579006
134	0xbd01c724	-0.031684056
135	0xbde06e2c	-0.109585136
136	0x3dcf0811	0.101089604
137	0x3da89c25	0.08232907
138	0xbd7a5d3d	-0.061124075
139	0xbd77ade7	-0.06046858
140	0xbe062ba6	-0.13102588
141	0xbc5515e0	-0.013005704
142	0xbba19c7b	-0.004931984
143	0xbd9f0f25	-0.077665605
144	0x3e00eec8	0.12591088
145	0x3c1d1552	0.009587603
146	0xbd7c5804	-0.061607376
147	0x3d4e2ee8	0.050337702
148	0xbd49514f	-0.049149808
149	0xbdc1ad1a	-0.09456845
150	0x3db294aa	0.08719762
151	0xbd17c957	-0.037057247
152	0xbdbbbafb	-0.09166523
153	0xbd61808a	-0.055054225
154	0x3db20874	0.086930186
155	0x3e043b08	0.12913144
156	0x3d8f2b41	0.06990672
157	0xbdf7f642	-0.12107517
158	0xbd954e80	-0.07290363
159	0x3d9826da	0.07429285
160	0xbd1e4460	-0.038639426
161	0x3d7eb5af	0.062184986
162	0xbde27e0e	-0.11059199
163	0x3c1032fa	0.008801216
164	0x3cc6bf0c	0.02426102
165	0xbdead8c2	-0.114671245
166	0x3d4c1b08	0.049830467
167	0xbcfbfec3	-0.030761128
168	0x3df3eb1b	0.11910077
169	0xbd967095	-0.07345692
170	0x3d617752	0.055045433
171	0xbdb5f5b8	-0.08884758
172	0x3d064160	0.03277719
173	0x3df377b7	0.11888068
174	0xbd7cd88f	-0.061729964
175	0xbdd5a01b	-0.10430928
176	0xbdba0223	-0.09082439
177	0xbdd3a27e	-0.10333727
178	0x3dbcdec4	0.09222177
179	0x3bf64a02	0.0075161466
180	0xbcfbce96	-0.030738156
181	0xbe03342d	-0.12812872
182	0x3d9077cc	0.070540994
183	0xbd23a9a1	-0.039956693
184	0xbe096fa4	-0.13421494
185	0xbd8c8877	-0.06861966
186	0x3dc7f8ca	0.097642496
187	0xbe110908	-0.14163601
188	0xbc9fc211	-0.019501718
189	0x3dbcde21	0.09222055
190	0x3ce9b533	0.028528785
191	0xbd203ee3	-0.039122473
192	0x3e0f3a67	0.13987122
193	0x3cf46834	0.029834844
194	0x3d753d2d	0.059872795
195	0x3c24a4e7	0.010049081
196	0xbd378e19	-0.04481325
197	0x3df6225d	0.12018273
198	0x3e01f46e	0.12690899
199	0x3d01b2f5	0.031664807
200	0x3d994fbb	0.074859105
201	0xbd699344	-0.05702521
202	0xbcd8d5cd	-0.026469136
203	0xbcc2712a	-0.023735601
204	0x3d493021	0.049118165
205	0xbc11d0bb	-0.008899863
206	0xbdd8316a	-0.105563
207	0x3df3ea51	0.11909927
208	0x3c4d10d0	0.012516215
209	0xbc25a700	-0.010110617
210	0xbdb154b3	-0.08658733
211	0xbccb0b23	-0.024785584
212	0x3d3d289e	0.046181314
213	0x3c2bdbd5	0.010489424
214	0xbcce0179	-0.025147187
215	0xbdd79bda	-0.10527773
216	0xbd9c76e5	-0.07639865
217	0x3c5e9461	0.013585181
218	0x3db58e01	0.08864976
219	0xbd984a2b	-0.074360214
220	0x3ce4e3ce	0.027940657
221	0x3db13bd1	0.08653987
222	0x3cf8a76e	0.030353274
223	0xbd13b850	-0.036064446
224	0xbbc2792d	-0.0059348554
225	0x3cd736fd	0.026271338
226	0x3d30c5c3	0.04315735
227	0x3d88b0ee	0.06674372
228	0x3dd64644	0.10462621
229	0xbd9c59e0	-0.0763433
230	0x3d3cd230	0.046098888
231	0x3dea7e46	0.11449866
232	0xbd5d7698	-0.054068178
233	0xbd47fec9	-0.048826966
234	0x3cb600f5	0.022217253
235	0x3dd29127	0.10281592
236	0x3d97fd65	0.07421378
237	0xbc0a741c	-0.008450534
238	0x3e03d45e	0.1287398
239	0x3c98dfc7	0.018661393
240	0x3d0de4b3	0.034641933
241	0x3d864f94	0.06558147
242	0x3dff9200	0.12479019
243	0xbdfa5aa6	-0.12224321
244	0xbc4b2228	-0.01239828
245	0xbd6b7583	-0.057485115
246	0x3da64cfd	0.08120153
247	0x3e030870	0.12796187
248	0x3b3c08d4	0.0028691785
249	0x3c87b213	0.016564405
250	0xbd0712c6	-0.032976888
251	0xbcd66647	-0.026171817
252	0x3d7c32a9	0.06157175
253	0xbdc3c422	-0.09558894
254	0x3e0edbde	0.1395106
255	0x3d60f56d	0.054921556

lstm.weight_ih_l0_reverse f4 [256, 32]
0	0x3dd01cee	0.10161768
1	0xbd9d06c3	-0.07667305
2	0x3dd08746	0.10182051
3	0xbd6c09ae	-0.05762642
4	0x3cc95528	0.024576738
5	0xbc9d8895	-0.019230166
6	0xbda5d83d	-0.08097885
7	0x3dc5e8fa	0.096635774
8	0xbd447bbf	-0.047969576
9	0x3df6a7c6	0.12043719
10	0xbcb40290	-0.021973878
11	0xbd5554a8	-0.052082688
12	0xbd544cfd	-0.051831234
13	0x3defd717	0.11710947
14	0x3c9a64c8	0.018846884
15	0x3def3a0f	0.11680996
16	0xbd2ac3c0	-0.041690588
17	0x3d8a9682	0.06766988
18	0x3cc5db9d	0.024152571
19	0xbd1bd099	-0.03804073
20	0x3db11ef6	0.086484835
21	0x3ddff732	0.10935821
22	0x3d8c4922	0.068498865
23	0xbd43f10b	-0.0478373
24	0xbca6594f	-0.020306258
25	0x3db26507	0.08710676
26	0xbd2a68cd	-0.041603852
27	0xbd69971b	-0.05702887
28	0x3d4e94c4	0.050434843
29	0xbde7c371	-0.11316574
30	0x3d90f33d	0.07077644
31	0xbde8031f	-0.1132872
32	0x3cedcc93	0.029028213
33	0x3c48fdfc	0.012267586
34	0x3d0200af	0.031738933
35	0x3d66eef8	0.056380242
36	0xbd867be7	-0.06566601
37	0x3d9011c7	0.07034641
38	0x3d8661d4	0.06561628
39	0xba2d5ea1	-0.0006613527
40	0x3d11bf90	0.03558308
41	0xbdb50000	-0.088378906
42	0xbd3382fb	-0.043826085
43	0xbd459132	-0.048234172
44	0x3d7d3f2d	0.061827827
45	0x3dc95524	0.098306924
46	0xbd16c2e9	-0.036806975
47	0xbd555fcd	-0.052093316
48	0xba9dd312	-0.0012041053
49	0x3e0b29d6	0.13590178
50	0x3c33c873	0.010973084
51	0xbdc3e71f	-0.09565567
52	0xbcae967e	-0.021311995
53	0x3d888cb3	0.06667461
54	0xbd9f1be2	-0.0776899
55	0xbdf23b13	-0.11827674
56	0xbbabb224	-0.005239742
57	0xbdb1a620	-0.08674264
58	0xbc34b471	-0.011029349
59	0xbda73bd9	-0.08165712
60	0x3c819b67	0.015821172
61	0x3d2d6bf5	0.042339284
62	0xbdec8560	-0.11548877
63	0xbdcdfa3e	-0.100574955
64	0x3d98e9fe	0.074665055
65	0xbda057a1	-0.07829214
66	0xbdb8391e	-0.08995269
67	0x3d87512e	0.06607281
68	0xbd3bebdb	-0.045879226
69	0xbd8302a7	-0.0639699
70	0x3d1c0848	0.038093835
71	0x3da16a18	0.07881564
72	0x3dd44525	0.10364751
73	0x3d5df6e7	0.054190543
74	0xb811bb88	-3.4745346e-05
75	0xbdc44ca2	-0.09584929
76	0xbdcebac8	-0.100942194
77	0x3dabac25	0.08382443
78	0x3d218db5	0.039441783
79	0xbce743f2	-0.028230641
80	0xbdc9098d	-0.09816275
81	0xbdf237dd	-0.11827061
82	0x3de672a9	0.112523384
83	0x3bfd82e7	0.007736552
84	0xbde709d8	-0.112811744
85	0xbde12640	-0.10993624
86	0x3db5907d	0.088654496
87	0xbdcd7e7d	-0.10033891
88	0x3c296a50	0.010340288
89	0x3a9515f4	0.001137434
90	0x3c9ea904	0.019367702
91	0x3d6941f2	0.056947656
92	0xbc263011	-0.010143296
93	0xbcf3c085	-0.029754886
94	0xbc2f1b2c	-0.010687631
95	0xbcd86ed6	-0.026420038
96	0xbbaa0852	-0.00518898
97	0x3dcf4c13	0.10121932
98	0x3dc9f4c9	0.09861142
99	0xbddd4317	-0.10803812
100	0x3dd11e75	0.10210887
101	0x3d9dc6e1	0.07703949
102	0x3d947d24	0.07250431
103	0x3cc1aa37	0.023640735
104	0x3d112cb5	0.035443027
105	0xbd616a50	-0.055033028
106	0x3ccfd0a3	0.02536804
107	0xbdeee63b	-0.11665007
108	0x3cef4cab	0.029211363
109	0xbd2e8466	-0.042606734
110	0xbe0c2674	-0.13686544
111	0x3dc8238d	0.09772406
112	0xbdb6318d	-0.0889617
113	0x3d8c05e6	0.068370625
114	0xbc5ce73c	-0.013482865
115	0xbd9e13f0	-0.077186465
116	0x3ddd6071	0.1080941
117	0xbd9c5741	-0.0763383
118	0x3d74dca7	0.059780743
119	0x3ccdd465	0.025125692
120	0x3bf4ecae	0.0074745035
121	0xbdd36092	-0.10321154
122	0xbd1cac16	-0.03825005
123	0x3da8d0db	0.08242961
124	0x3cc98cd7	0.02460329
125	0xbd0733ea	-0.033008493
126	0x3c77544f	0.015095784
127	0x3d07962d	0.033102203
128	0x3dafb0dc	0.08578655
129	0xbc95b560	-0.018274963
130	0x3d743084	0.05961658
131	0xbd31797d	-0.04332875
132	0xbdcb86f0	-0.09937847
133	0x3d955b36	0.07292788
134	0x3d66d06c	0.05635111
135	0x3d844ba7	0.06459742
136	0x3dd28f0d	0.10281191
137	0x3d8d1766	0.068892285
138	0xbd90f835	-0.07078592
139	0x3be0403d	0.0068435953
140	0x3dbd90d5	0.0925614
141	0xbdd0c72b	-0.10194238
142	0x3b74ae17	0.003733521
143	0x3e078ecc	0.13238066
144	0xbde0cee7	-0.109769635
145	0xbd9a4165	-0.07532004
146	0xbd86695d	-0.06563065
147	0xbdbc9214	-0.0920755
148	0xbdb13063	-0.08651807
149	0xbd8b2ce4	-0.067956716
150	0x3d6f6d68	0.058453947
151	0x3d375806	0.04476168
152	0x3dff74f2	0.124734774
153	0xbd00b324	-0.03142084
154	0x3dfb209f	0.12262081
155	0x3dcbf25d	0.099583365
156	0x3d9c39d6	0.07628219
157	0xbbad8522	-0.0052954117
158	0x3d87937f	0.066199295
159	0x3dfc4d0b	0.12319382
160	0x3de70441	0.11280108
161	0x3b3e8f21	0.002907701
162	0x3daa38c6	0.0831161
163	0x3d2059e1	0.039148215
164	0xbcb8168f	-0.022471694
165	0x3d48cf47	0.0490258
166	0xbbc363dd	-0.0059628324
167	0x3d8735b2	0.066020384
168	0xbd95058b	-0.07276448
169	0xbc4c4693	-0.012467998
170	0x3d78b217	0.060716715
171	0x3cc7b1ac	0.024376713
172	0xbd9efb33	-0.07762756
173	0xbdce1d00	-0.10064125
174	0x3d21fb1a	0.03954611
175	0x3d57d467	0.052692797
176	0xbdad007d	-0.08447359
177	0xbd971272	-0.07376565
178	0xbc54e7f5	-0.012994756
179	0xbde47cba	-0.11156602
180	0x3d12e737	0.035865035
181	0x3dca77b5	0.098861136
182	0x39f37c0c	0.00046440994
183	0x3dcbec80	0.09957218
184	0xbdd636dd	-0.10459683
185	0xbd88e983	-0.06685164
186	0x3dd484c2	0.10376884
187	0xbcfa71eb	-0.030571898
188	0xbd23880d	-0.03992467
189	0xbd801bc1	-0.06255294
190	0xbdd55ff0	-0.10418689
191	0x3d4a9c50	0.049465477
192	0xbb16ce9d	-0.0023011335
193	0x3d4702fb	0.048586827
194	0x3d8d3531	0.06894911
195	0xbd94e9f4	-0.072711855
196	0xbde2c753	-0.11073174
197	0x3dd97ca9	0.1061948
198	0xbca81891	-0.020519527
199	0x3d1c5e92	0.038176127
200	0x3db59850	0.08866942
201	0xbce6fecd	-0.02819767
202	0xbdc7e3be	-0.09760235
203	0xbd4e06b6	-0.05029937
204	0xbe007ea3	-0.12548308
205	0x3d3ad5b0	0.045613945
206	0x3cbd6e1a	0.02312379
207	0xbdce77e9	-0.10081465
208	0xbc35e919	-0.011102938
209	0xbdb0531d	-0.086096026
210	0x3dbc4749	0.09193284
211	0x3dfe92a0	0.1243031
212	0x3c3e897c	0.0116294585
213	0x3ad5420b	0.0016270293
214	0x3ddb7c84	0.10717109
215	0x3a5a24d5	0.00083215284
216	0xbd41f970	-0.047357023
217	0xbd8b94c8	-0.06815487
218	0x3d5d0908	0.05396369
219	0xbda116f1	-0.07865704
220	0x3b12cdd7	0.0022400522
221	0x3d96b51b	0.07358762
222	0x3d2a6b56	0.04160627
223	0x3db3427f	0.087529175
224	0x3d307bad	0.043086696
225	0xbdd21a16	-0.10258882
226	0x3cb5ac53	0.022176897
227	0x3d8b125d	0.06790612
228	0x3d26adb3	0.040692996
229	0xbd3bfa14	-0.04589279
230	0xbd98081b	-0.07423421
231	0xbd885a68	-0.066578686
232	0x3db6404b	0.08898982
233	0x3c9e6124	0.01933343
234	0x3d60e348	0.054904252
235	0x3daf8c79	0.08571715
236	0x3de106e2	0.10987641
237	0x3de758dc	0.112962455
238	0xbd955b76	-0.072928354
239	0x3cba7efc	0.022765629
240	0xbde6d9ee	-0.112720355
241	0x3db97ea6	0.090573594
242	0xbd9ffd1c	-0.07811949
243	0x3df24536	0.11829607
244	0xbd797b28	-0.060908467
245	0x3d854a87	0.065083556
246	0x3d23f7bc	0.04003118
247	0xbd1211df	-0.035661574
248	0xbddb20fd	-0.106996514
249	0xbccf732f	-0.025323479
250	0x3d35f1dd	0.044420112
251	0x3d881088	0.06643778
252	0xbddd60db	-0.10809489
253	0xbdda7cf7	-0.106683664
254	0x3dec521c	0.115390986
255	0xbcde5240	-0.02713883

lstm.weight_hh_l0_reverse f4 [256, 64]
0	0x3d104bb4	0.035228446
1	0xbdbb4b7e	-0.09145258
2	0xbd6bce60	-0.05756986
3	0xbd60ee69	-0.054914866
4	0xbd4dc131	-0.05023307
5	0x3dc0648e	0.09394179
6	0x3c97be08	0.018523231
7	0x3cf812c7	0.030282391
8	0xbde2af2f	-0.1106857
9	0x3d91375a	0.070906356
10	0xbd50b748	-0.05095604
11	0xbd41c496	-0.04730662
12	0xbd960f5f	-0.073271506
13	0xba1db773	-0.0006016411
14	0x3d3dad7c	0.046308026
15	0xbddc53c1	-0.10758162
16	0x3d8dbb08	0.06920439
17	0xbd71cc8b	-0.059032958
18	0x3c12e278	0.008965127
19	0x3d11fe17	0.03564271
20	0x3c283937	0.010267547
21	0x3e053bc6	0.13011083
22	0xbde3f10e	-0.11129962
23	0xbdc18434	-0.09449044
24	0x3d81a953	0.06331124
25	0x3da69e33	0.08135643
26	0x3de3e5e4	0.111278325
27	0x3c5bb18c	0.01340903
28	0x3ddf8e55	0.109158196
29	0x3d8ac264	0.06775358
30	0x3dd16810	0.102249265
31	0xbc1d7e15	-0.00961258
32	0x3dc1842a	0.094490364
33	0xbdbb4d45	-0.09145597
34	0x3d0c304e	0.034225754
35	0xbd87cfd3	-0.06631436
36	0x3d2a6e02	0.041608818
37	0x3d9e4b46	0.07729201
38	0x3d8962af	0.067082755
39	0x3db12956	0.08650462
40	0x3d9d3982	0.07676984
41	0x3c84df03	0.016219622
42	0x3d3909c7	0.04517534
43	0x3deddce9	0.11614401
44	0x3d8234ce	0.06357728
45	0xbd4cee54	-0.050031975
46	0xbd121a31	-0.03566951
47	0xbb71bbaf	-0.003688555
48	0x3d33d252	0.04390175
49	0xbdacfc9d	-0.0844662
50	0xbdcdbbed	-0.100456096
51	0x3d75809f	0.059937116
52	0xbc970ccf	-0.018438725
53	0x3d931f72	0.07183732
54	0x3cfada3b	0.030621639
55	0x3de7a031	0.11309851
56	0x3de73544	0.112894565
57	0xbd7f566c	-0.062338278
58	0xbdcc5ebe	-0.09979008
59	0xbdc26bef	-0.09493243
60	0xbda643d7	-0.08118408
61	0xbd1bb4d1	-0.038014237
62	0x3c8ac395	0.016938964
63	0x3cadcc75	0.021215657
64	0xbad8ae1e	-0.0016531383
65	0xbdfb3aab	-0.122670494
66	0xbd0c6b1a	-0.034281828
67	0xbdd53fe9	-0.104125805
68	0x3d56e7fd	0.052467335
69	0x3d411967	0.047143366
70	0xbd8cace5	-0.068689145
71	0xbc905778	-0.017619833
72	0x3dff82e5	0.12476138
73	0xbd9f631e	-0.07782577
74	0x3d46a186	0.048493885
75	0x3d4c002f	0.049804863
76	0x3dc8398a	0.097766
77	0xbcd43728	-0.025905207
78	0xbdd62e48	-0.10458046
79	0xbcc63b66	-0.024198245
80	0xbdc70cf2	-0.09719266
81	0xbcd18e7d	-0.025580639
82	0x3d959e5b	0.073055945
83	0xbe086d42	-0.13322929
84	0x3d7fdde2	0.062467463
85	0xbc3f29f3	-0.011667716
86	0x3da20acc	0.079122156
87	0xbd891eba	-0.06695314
88	0x3db54174	0.08850375
89	0x3e04bc27	0.129624
90	0xbd6e96f3	-0.058249425
91	0x3d0cf81d	0.034416307
92	0x3caf305f	0.02138537
93	0x3cf257cd	0.029582882
94	0x3d8a65e0	0.06757712
95	0xbda80a0d	-0.08205042
96	0x3d86756f	0.065653674
97	0xbd98ec4c	-0.07466945
98	0x3d9118d0	0.07084811
99	0xbda8e2bd	-0.08246372
100	0x3d20c131	0.03924674
101	0xbdefc81d	-0.117080905
102	0xbde17276	-0.1100816
103	0xbbed2835	-0.007237459
104	0xbd4704b1	-0.04858846
105	0xbd8002dd	-0.06250546
106	0xbcf36a25	-0.0297137
107	0xbdf3388b	-0.11876019
108	0xbda991e1	-0.08279777
109	0x3d1cb1bf	0.03825545
110	0xbd1a6817	-0.037696924
111	0xbdaa7e62	-0.08324887
112	0x3dc8a698	0.097974
113	0x3cf638fe	0.030056473
114	0x3de42deb	0.11141571
115	0x3e00ca81	0.12577249
116	0xbd83c5c6	-0.06434207
117	0x3c46a6cc	0.012124728
118	0x3dc92502	0.09821512
119	0x3d5fa43a	0.054599978
120	0xbdc77388	-0.09738833
121	0x3df58ee5	0.119901456
122	0x3decdbac	0.115653366
123	0x3db583d2	0.08863033
124	0xbd9b4cdd	-0.0758302
125	0x3d6194ec	0.055073664
126	0xbdadb0b1	-0.08480967
127	0x3d22cb44	0.03974463
128	0x3daa82ef	0.08325755
129	0x3da46467	0.08026963
130	0x3d327761	0.04357088
131	0x3cfddbb0	0.030988544
132	0x3d0f9b58	0.035060257
133	0x3ddec26f	0.10876929
134	0x3c857987	0.0162933
135	0xbd6dfa56	-0.058100067
136	0xbcde4a6b	-0.027135095
137	0xbb99296e	-0.0046741283
138	0xbd029531	-0.03188056
139	0x3cd121c6	0.0255288
140	0xbd9dda7c	-0.07707688
141	0xbd4f949b	-0.05067883
142	0x3df4cb26	0.1195281
143	0xbde0ab22	-0.10970141
144	0xbd80dbc3	-0.06291916
145	0x3d8e306b	0.06942829
146	0x3d849284	0.06473258
147	0xbd97d2aa	-0.07413228
148	0xbde84f9b	-0.113433085
149	0x3d8e5656	0.06950061
150	0xbd23faa2	-0.040033944
151	0xbaaa7985	-0.0013006186
152	0x3ca0dbec	0.019636117
153	0x3db479ad	0.0881227
154	0x3d8d4f1d	0.06899855
155	0x3d899597	0.06717985
156	0x3ca0e253	0.01963917
157	0xbc6c4ec8	-0.01442308
158	0x3d480585	0.04883339
159	0xbdb1c79d	-0.08680651
160	0xbc007c53	-0.007842141
161	0x39c5c2f9	0.00037720034
162	0x3d40e0a8	0.04708925
163	0xbdd37224	-0.10324505
164	0xbb8e6fb5	-0.0043468126
165	0x3c41ef15	0.011836787
166	0xbd13ea1f	-0.036111947
167	0x3dd98d5e	0.10622667
168	0x3ddc3598	0.1075241
169	0x3d20416e	0.0391249
170	0xbe05e7c5	-0.13076694
171	0x3dda5b83	0.10661986
172	0xbd0b597d	-0.03402089
173	0x3dde4c16	0.10854356
174	0xbbf6f21b	-0.0075361854
175	0x3c59e105	0.013298278
176	0x3daf802d	0.085693695
177	0xbdaa50c1	-0.08316184
178	0x3d3be3c6	0.04587152
179	0xbd8144fd	-0.063119866
180	0x3dad1357	0.084509544
181	0xbdf7cef2	-0.121000186
182	0xbde691af	-0.11258256
183	0xbbba8d55	-0.0056931176
184	0x3d8e7118	0.06955165
185	0x3ddfee4a	0.10934122
186	0x3d100b93	0.035167288
187	0x3da0f81d	0.07859824
188	0x3d1e9271	0.038713876
189	0xbc3f3a75	-0.011671652
190	0xbc7a213a	-0.015266711
191	0xbd9d54b1	-0.07682169
192	0x3cb3d9c7	0.02195443
193	0x3d275934	0.040856555
194	0xbde5618f	-0.112002485
195	0x3cc2889f	0.023746787
196	0xbab12873	-0.0013516083
197	0x3de653d9	0.112464614
198	0xbd718065	-0.058960337
199	0xbcb5a9cf	-0.022175698
200	0x3df15414	0.11783615
201	0x3d4e6e1a	0.05039797
202	0xbc4aa0fa	-0.012367481
203	0x3b86c642	0.0041129896
204	0xbde12479	-0.10993285
205	0x3de0e193	0.10980525
206	0xbdf60d2b	-0.1201423
207	0xbc14df77	-0.009086481
208	0x3c94bbc8	0.018155947
209	0xbdacd383	-0.0843878
210	0x3e05ac9f	0.13054131
211	0xbd563027	-0.052292015
212	0xbd7d713e	-0.061875574
213	0xbaf152ca	-0.0018411514
214	0xbda54cc2	-0.08071281
215	0x3c8c81c3	0.017151719
216	0x3c60c792	0.013719456
217	0xbd14b518	-0.036305517
218	0x3ded4781	0.11585904
219	0xbcd00d4c	-0.025396965
220	0xbdc06787	-0.09394746
221	0xbdd3a1b3	-0.10333576
222	0xbd3d1391	-0.046161238
223	0x3dc0922c	0.0940288
224	0xbd4d2a0b	-0.050088923
225	0xbd85b541	-0.06528712
226	0xbd3f34c5	-0.046681184
227	0xbc6db897	-0.014509342
228	0xbd483029	-0.048874054
229	0x3cb7251d	0.022356564
230	0xbdb4b9cf	-0.08824503
231	0xbd567d08	-0.052365333
232	0x3d44e86b	0.048073214
233	0x3d49cadd	0.04926573
234	0x3dd6ff9a	0.10497971
235	0xbdb6f400	-0.08933258
236	0xbdcf35f9	-0.10117716
237	0x3d63f555	0.05565389
238	0x3c6b81b9	0.01437419
239	0x3de95435	0.11393014
240	0xbd1834cc	-0.037159726
241	0xbcd4e849	-0.025989668
242	0x3d8379a0	0.064196825
243	0xbdf18038	-0.11792034
244	0xbdefc78c	-0.117079824
245	0xbd853999	-0.065051265
246	0xbde158cf	-0.11003267
247	0x3db9e929	0.09077675
248	0x3dcb1f6d	0.09918103
249	0xbd3a105c	-0.045425758
250	0xbd889788	-0.06669527
251	0xbd2dc7e4	-0.04242696
252	0x3e08fbbc	0.13377279
253	0x3d087360	0.033313155
254	0xbc1a2243	-0.009407583
255	0x3b9c9db5	0.0047795423
